ViT4MNIST/app/src/main/assets/vit4mnist.pth (torch, 885012 bytes, 48 tensors)

prepack_folding._jit_pass_packed_weight_0 f4 [64, 49]
00000000: 1eda 95be 6236 24bf 12af adbe 957f 43be
00000010: 9c4c efbe c2ac 343e e3cd d53e 552d 453e
00000020: 02a1 3a3d b133 a43e b29e 293e 8f40 b03e
00000030: c564 203e b25b 923e f86f a73d 491c f13e
00000040: 8e60 e33e 7593 c63e eb9b 993e 3856 46bd
00000050: 38b7 a13c a8d5 39bc db29 043f c5d2 923e
00000060: df2b 2f3c f18a b7bc 1253 18be 190f c9bd
00000070: 816b 9dbe b01d 863e 96bf 3c3d 9ef1 87be
00000080: 72f9 b1be e5f9 f3be 5be6 01be 40de 04bf
00000090: 692e 0dbd 627f afbe 32d3 56be 0861 7c3d
000000a0: 26ca ce3d a42f 9e3e fb6e 60bf 3169 18be
000000b0: 7e7e 91bd bfdd 5dbe fce6 363e 4d2c 863d
000000c0: 2bd4 dc3d 0936 b43e fa31 b0be f2c6 cdbe
000000d0: 30e6 b6be 9680 2cbf 63c1 15bf 2187 80bf
000000e0: ad8b 443d 305e c6be ef39 16bf 1696 f7be
000000f0: 9488 38be 4635 e9be ee46 34bf e116 433d
00000100: 830d 1abe 620c 5abd eeaf a7bd 4a0c 2d3d
00000110: 65ec 16be ca64 38be f836 233c 497b ba3e
00000120: bffb cf3d 72ec c23e 9f4b b93e fce3 963e
00000130: ffcf 1ebc 5b67 903e 376c 233e b74f 293e
00000140: 84fe 073f 9a8c 6d3e e3ad a03e d044 883e
00000150: fbef 423e 0331 cd3d 18b6 af3e 002b 233f
00000160: b19f 293e d4ab 8c3d 31ef 233f e662 04bf
00000170: 7e21 47be c0a6 81be 53ed babe 9bb7 c9be
00000180: 595b f93d 5933 613e 0a3b 21bf 386a 9e3d
00000190: c376 013f 3dd8 063f a15c d03e 4a1b c63e
000001a0: 8c5b 193e ddac 21bf 75f2 c0be 31c9 68be
000001b0: 872a 90be 3c1a e8bd 6acf 15be 8cd5 cebe
000001c0: 2593 9cbe 8f72 fbbe 1a5b bcbe 9601 bfbd
000001d0: 7589 16bd 1664 9cbe b1bf 94be 2707 923d
000001e0: cbaa 733d 51ea 973e 8748 c73e 2630 da3d
000001f0: 1f32 213e 78e3 3a3e 206a 393e 3303 e73e
00000200: 4de3 323f 452b 1e3f 2041 e33e 3786 a03e
00000210: bf54 f13d 5622 9f3e ecc7 b73e 2f59 783e
00000220: a434 ff3d a030 a6bd 3502 f63d 1ab7 4a3d
00000230: 70fb 7a3d 1eeb 03bf 91be 02bf 87a1 dcbe
00000240: 4ff0 b6bb 67e6 03be 1f2e 843e e76b 07bf
00000250: 7718 02be f8da 313e 77f3 4b3e 5462 cf3e
00000260: 8a51 97bd 9e60 97be 1289 9dbe 7c1f 65be
00000270: f8ee 3f3e 4e0d 603d 8e56 7bbe 2120 76be
00000280: 2826 f0bd 0b3e d33c b5d7 903d 1f67 b83d
00000290: 3d64 d6bd a671 c3be 69e2 d0bd a214 fa3d
000002a0: b140 aebc b682 8a3d d37c b73e 75bd d1bd
000002b0: 7e04 48be 89bf 583e 4df1 6fbd 6ac7 4f3c
000002c0: fb2b 8a3e 2038 0e3e e689 093e 73cf 013e
000002d0: 1b9e 00bc 5fdf 6bbe 17cd 6c3e 4499 8e3e
000002e0: 0c16 5abe 78e1 83bc c61a 61be 42eb 813e
000002f0: b9be 2dbe 91d5 e33e 8696 173c 2132 81be
00000300: 7bdf bdbe 6f7b fdbd 5333 4e3d 74f2 7cbe
00000310: 3baa 9abe b23b 0e3c 937f 9b3e a0f0 353d
00000320: 3e2b 953b a150 8c3d e714 b13e 2f7a 373e
00000330: d8ec 9b3e 7c5e 443e 7994 12bd e5e2 433d
00000340: 843b 89bc 3e37 443e e2ce b83e 0031 ab3e
00000350: dd47 c8bd 2ab9 99bb 20ee 503c 0cc1 823e
00000360: c1f5 a63d c494 de3e 4cdb b33e e265 f1bd
00000370: b3e0 dcbd 0405 063d 68fa 21be 3f87 23be
00000380: 562f 8d3e 4f56 1fbd 4d53 71bb 01a1 8abe
00000390: 90f5 83be 3ba6 12bf 742e 1cbf 69da 103e
000003a0: e50f 4bbe 5869 00be 6b36 c8bd f064 a4be
000003b0: f22d 17bf fa89 20bf f53c 103f 18a8 023f
000003c0: c7e4 793e af61 c53e ff81 7ebe e4ab 92be
000003d0: 937a 953a 68ad 9f3e d208 dabd 45ff a7bc
000003e0: 3db9 cb3d 3177 103d a413 a93e 45d6 e13b
000003f0: d2be 2dbd cc2e aebd 571c 5c3e aca3 9e3e
-0.29267973 -0.6414548 -0.3392263 -0.19091637 -0.46738136 0.17644027 0.41758642 0.19255574
0.045563705 0.32070687 0.16564444 0.34424254 0.1566344 0.28585583 0.08175653 0.47091892
0.44409603 0.38784376 0.30001768 -0.04842207 0.019740686 -0.0113424435 0.51626366 0.2867643
0.010691612 -0.02240512 -0.14875439 -0.09817333 -0.3074608 0.26194525 0.046081148 -0.26551527
-0.34760624 -0.47651592 -0.1268553 -0.51901627 -0.03446809 -0.34276873 -0.20979002 0.061615974
0.100971505 0.30895722 -0.8766934 -0.14883877 -0.071042046 -0.2166662 0.17861551 0.065514185
0.10782655 0.35197476 -0.3441313 -0.40190846 -0.35722494 -0.67383707 -0.5849821 -1.0041238
0.047984768 -0.38743734 -0.5868215 -0.48356694 -0.1802085 -0.45548457 -0.7042073 0.04762924
-0.15044217 -0.053234465 -0.08187853 0.042248048 -0.14738615 -0.18007198 0.009961836 0.36422184
0.10155439 0.38071018 0.36190507 0.29470813 -0.009693145 0.28203854 0.1595925 0.16534315
0.53122735 0.23198166 0.31382665 0.26615 0.19036858 0.10019114 0.34318614 0.6373749
0.16564824 0.06868711 0.6403685 -0.5171341 -0.1944637 -0.25322533 -0.3650919 -0.39397892
0.12175626 0.21992244 -0.6298071 0.07735103 0.5057184 0.52673703 0.4069567 0.38692695
0.14976329 -0.63154393 -0.3768498 -0.22732998 -0.28157446 -0.11333129 -0.14629903 -0.40397298
-0.30581012 -0.4911084 -0.36788255 -0.09326474 -0.036752183 -0.3054511 -0.290525 0.071302705
0.059489053 0.29670957 0.3892252 0.10653715 0.15741776 0.18250835 0.1810689 0.45119628
0.69878083 0.61784774 0.44385624 0.31352398 0.11783742 0.31080884 0.35894716 0.24252771
0.12461212 -0.08114743 0.1201214 0.049491026 0.061274946 -0.51530635 -0.5107203 -0.43091986
-0.0055828462 -0.1288086 0.25816438 -0.5289902 -0.12704645 0.17368686 0.19917093 0.40504706
-0.07388599 -0.295659 -0.3076864 -0.22375292 0.18743503 0.05470019 -0.24544737 -0.24035694
-0.11726028 0.02578642 0.07072393 0.09004044 -0.10468338 -0.38172644 -0.10199434 0.12210967
-0.021271082 0.067632124 0.3583742 -0.10241214 -0.19532964 0.21166815 -0.05857973 0.012681821
0.2698668 0.13888597 0.1343151 0.12676792 -0.007850195 -0.23034428 0.2312511 0.27851307
-0.21297473 -0.016098723 -0.2198287 0.253748 -0.16967286 0.44498876 0.009252196 -0.25233558
-0.37084565 -0.12377059 0.050341915 -0.24701864 -0.30208 0.008681225 0.3037077 0.04441893
0.004552274 0.06851316 0.3458626 0.17917703 0.30454135 0.19176668 -0.035786126 0.047823805
-0.016752012 0.19161698 0.3609534 0.33435822 -0.09779332 -0.0046912627 0.012752086 0.25537908
0.081523426 0.43472874 0.35128248 -0.11787011 -0.107850455 0.032719627 -0.15818179 -0.15969561
0.27575177 -0.03890067 -0.0036823333 -0.2707596 -0.25773287 -0.572849 -0.6100838 0.14145817
-0.19830282 -0.12540185 -0.097760044 -0.3210826 -0.5905448 -0.62710536 0.56343013 0.5103774
0.24403678 0.3855109 -0.24854277 -0.28646767 0.0011404328 0.31186986 -0.106462136 -0.020507464
0.09947441 0.03526992 0.33022797 0.006891998 -0.04241831 -0.085050195 0.21495186 0.30984247

prepack_folding._jit_pass_packed_weight_0 f4 [64]
00000000: ab01 b3be ae67 aebc 0750 883e f25b eabc
00000010: e9d5 36be a83b c0bd bd1b 2c3d 9b23 6ebd
00000020: 1003 0b3e 19db f7bd 231c 00be d0d8 803d
00000030: b788 5cbe be9f 7bbe 136a 34be cf0f 11be
00000040: 40f9 333d 51fa 23be 9e46 b0bc eae2 1c3e
00000050: 61de 523e 2fc0 acbe 7e77 333e 3f65 9cbe
00000060: cb07 363e cb9a 06be 4fc8 483e e46f bc3c
00000070: f244 9cbd daf0 71bd 4556 983e 84ac 98be
00000080: d591 1dbe 96a8 2d3e 3997 2d3e 1465 253e
00000090: 359b 26be cfc7 40bf 41e7 07be 65e2 4f3e
000000a0: 852a db3c d97a 793d 64e0 313e e041 db3d
000000b0: 8c7f 4ebe 620e 2a3e dfbe e0bd aeba 4d3f
000000c0: bf31 833d 3a0f 2cbe a0b0 8fbd 41e4 18be
000000d0: 1ef8 753e 4878 483c 9415 943e 5430 9e3e
000000e0: e7b3 583d d09a a0be 579c 913e 44fd e8bd
000000f0: fdb1 9abb 77aa 363d e373 0ebe a44b 9f3e
-0.3496221 -0.021289673 0.26623556 -0.028608296 -0.17855038 -0.093863785 0.04201864 -0.058139425
0.13575387 -0.121023364 -0.12510733 0.06291354 -0.21536528 -0.24572656 -0.17618589 -0.14166187
0.043938875 -0.16013457 -0.021518048 0.15320936 0.20592643 -0.33740374 0.17526051 -0.30545995
0.1777641 -0.13144986 0.19607662 0.023002572 -0.07630338 -0.059067585 0.29753318 -0.2981912
-0.15387662 0.16958842 0.16952218 0.1615184 -0.16270144 -0.75304884 -0.1327181 0.20301206
0.026753673 0.060908172 0.17370754 0.10705924 -0.20165843 0.16607049 -0.10973906 0.80362976
0.06405973 -0.16802683 -0.070161104 -0.14930822 0.2402043 0.012235709 0.28922713 0.30896246
0.052905943 -0.31368113 0.2843959 -0.113764316 -0.004720925 0.04459616 -0.13911395 0.31112397

prepack_folding._jit_pass_packed_weight_1 f4 [192, 64]
00000000: 19e3 e2be 3f35 ba3e 7653 4cbe 2263 fdbe
00000010: c5b0 523d 1359 b6bc 8e69 4ebe a6a4 d3bd
00000020: 5884 e53c c9ec ccbe d572 ca3d 2267 c0bc
00000030: fda9 a23b a51e 10bf dba1 5dbd 2295 b53d
00000040: a1bc 76bc 2b8d a93e f687 3a3e a0fd 2f3f
00000050: c7e1 2abf d584 bb3e 46f6 653e 16e6 353f
00000060: dc75 83be 661e 0c3d 67f6 04bd bb68 ed3e
00000070: b474 223f 1026 4b3d b50d 49be cd06 1abc
00000080: 9e9a f2bd 1f20 17be 35d4 1dbc 22bb ac3e
00000090: 24b5 573c b2b4 ac3e 19a1 733c fdc8 b23d
000000a0: 51a2 4d3e 4a96 1e3e fc4b 01bf e692 a23c
000000b0: 0070 97be 8aae f83e 913a 92be 7d3c 973d
000000c0: e99b dd3d 194c 0ebf 120d b7bc b087 3abe
000000d0: 95ae 43bf 7bd6 983e ee75 10bf 1b04 81be
000000e0: 355b 6abf f6a8 d43e 358a 4f3e 1d11 e63e
000000f0: 2c8c c03d 24ca 7abe c216 0dbe 9ec5 50be
00000100: d62e 173e 79b5 343d 2be4 f73d 50e8 bd3b
00000110: 7304 c2be 7b65 19bf 9475 a1bd 909c b53e
00000120: fc13 29be e7d4 6f3d c5fa e2be 4628 49bd
00000130: c918 9fbe 4d64 15bf cdf2 a0be 0e88 40be
00000140: 99d7 3abe bd3a af3e 2b3e 1c3e f9ef 8cbd
00000150: 01dc 06be e2b1 ae3b c63e a83e 305c 163e
00000160: a922 be3d 7aac e4bc 7b3e 603e e19e 41be
00000170: cf23 0e3f 5c51 053f b8c0 383f 2b08 ad3e
00000180: 0012 a4be 1c16 003e 04c4 cabe 054f 493e
00000190: 6f26 7fbe ded0 f8be 9839 42be 5006 a4be
000001a0: 841a 6cbb ecf1 0f3f 4085 1c3e b1be 30be
000001b0: f4af 3abf 446a 1ebe c609 013e cfea c3bd
000001c0: f437 993e ad39 a5be 1e21 693f c6d7 35bf
000001d0: af40 013d 76c5 f73e 70ac 093f 11b5 47bf
000001e0: 3a26 163e 2031 dabe 9a18 cfbe f1a4 c3bd
000001f0: 43f8 3a3e 6a2b 913c ef47 96be a4b1 863e
00000200: ce6e 233f 77f4 4dbe b5d2 513e 2392 11bf
00000210: b04c a5be 139d 09bf 3693 c73e e5c9 05bf
00000220: 0b00 80be b696 c63e f208 0fbe 8489 9b3e
00000230: ba9f 66be d9bb a4bd 8158 4c3f 0d16 6c3e
00000240: c433 f13d e765 67bf 6493 9a3d 23ff 133d
00000250: cd17 50be 93c6 d33e f223 ec3e e943 923e
00000260: 0aa0 013d 228b f63d 6f57 c9be c163 533f
00000270: b6c7 07bf 99f7 08bf 8aed f2be 503e b3bb
00000280: bc5f e33d 747c afbe 4f5a d3be a01c 243e
00000290: 02dd 10bf 96e2 16be 7b58 303f ad6c 233f
000002a0: 014a c8be 1bdb c8be 61e8 c5be 7ed7 ae3d
000002b0: 974d a93d 7e54 a7be f8ad 6d3c c4a6 48bc
000002c0: 2d86 16bf e4d9 3cbd 5dd9 22be f422 c53e
000002d0: e1ca f43d 2a49 ca3d ea02 e4be 759e ef3e
000002e0: 5771 213f 9803 a6be 8e62 c3be d6b9 b9be
000002f0: 45a1 0a3e 3c19 5c3e 684c b33e 09cc 8e3e
00000300: ee62 a63c b362 5a3e fd89 9e3e ed90 4ebf
00000310: 4dd4 37be 33a0 9abe f6c0 563e f996 0abf
00000320: 34f8 acbe 6142 4f3d 0b21 253e dd44 b23d
00000330: 8652 8fbe fcd3 f7bb 3753 57bd 70ca 17be
00000340: e58e 4cbd 56d0 a13e e903 163f c955 193d
00000350: 8e34 adbe 5e23 dd3e 7d82 593e 2446 bd3e
00000360: a811 703e a0a5 e43d f888 823e d2bc 503e
00000370: 8561 c23d 6708 babd ecb9 56be aaa3 54be
00000380: e8da 9fbe db6c 423e b801 61be 362a 753e
00000390: db4e 25be a44a 003e 07dd 3e3e 9fed 583c
000003a0: 9a43 0cbe 7f5f f93e 57e6 02bc 4f2e 563e
000003b0: 4573 90be 6365 d43d a6c8 983e c430 ebbd
000003c0: eb5b ffbe a020 3ebf 887b 403e cfaa c6be
000003d0: 327b f83d 6fdc dc3e 0fdf 53be 626b 9bbe
000003e0: 224d b8be 0101 c1bd 53d2 72be a1ed 923e
000003f0: b68c d33d ea5a ec3c bb92 54bd 70b0 783e
-0.44313887 0.3636875 -0.19953713 -0.49489695 0.05143811 -0.02225927 -0.20157453 -0.103341386
0.028017208 -0.40024403 0.09885184 -0.023486678 0.004964112 -0.5629676 -0.054109436 0.088663355
-0.015059621 0.33115515 0.18215927 0.68746376 -0.6675076 0.3662478 0.22457227 0.7105421
-0.25675857 0.034208678 -0.03246155 0.46368966 0.63459325 0.049596846 -0.19634135 -0.0094010355
-0.11845897 -0.14758347 -0.009633114 0.3373652 0.013165746 0.3373161 0.014869952 0.08729742
0.2008145 0.15487018 -0.5050657 0.019845437 -0.29577637 0.48570663 -0.28560308 0.07384584
0.10820753 -0.55584866 -0.0223451 -0.18215823 -0.76438266 0.29851136 -0.56429946 -0.25198445
-0.9154542 0.41535157 0.20267566 0.4493493 0.09401736 -0.24491173 -0.13778213 -0.20387885
0.1476396 0.04411838 0.121040665 0.005795516 -0.3789402 -0.5992047 -0.078837544 0.3547101
-0.1651153 0.05855265 -0.44331947 -0.049110673 -0.31073597 -0.5835617 -0.31435242 -0.188019
-0.18246306 0.342245 0.1525809 -0.06881709 -0.13169862 0.005331264 0.32860392 0.14683604
0.09283955 -0.027914274 0.21898834 -0.18908264 0.5552339 0.5207727 0.72169065 0.33795294
-0.32044983 0.12508434 -0.39602673 0.1965905 -0.24917005 -0.48596853 -0.18967283 -0.32036066
-0.0036026547 0.5622852 0.15285206 -0.17260243 -0.72924733 -0.15470225 0.12601385 -0.095662706
0.299255 -0.32270566 0.9106616 -0.7103237 0.031555828 0.48392838 0.53778744 -0.7801066
0.1466302 -0.42615604 -0.40448457 -0.095529445 0.18258767 0.017720897 -0.29351756 0.26307404
0.6384095 -0.20112787 0.20490535 -0.5686361 -0.3228507 -0.537553 0.389795 -0.5226119
-0.25000033 0.38786858 -0.13968256 0.30378354 -0.22521868 -0.080436416 0.79822546 0.23055287
0.11777452 -0.90389866 0.07547644 0.03613199 -0.2032158 0.41362438 0.46121174 0.28567436
0.031646766 0.12038256 -0.3932452 0.8257409 -0.5303911 -0.53502804 -0.47446853 -0.0054700747
0.11102244 -0.34274638 -0.41279837 0.16026545 -0.5658723 -0.14734873 0.6888501 0.638377
-0.3911896 -0.39229664 -0.38653854 0.085371956 0.08266752 -0.3268165 0.014506809 -0.012246791
-0.58798486 -0.046106234 -0.1590323 0.3850323 0.119527586 0.09877236 -0.44533473 0.4680058
0.6306357 -0.32424617 -0.3816113 -0.36274594 0.13538082 0.21494001 0.3501923 0.2789004
0.020310845 0.21326713 0.30964652 -0.8068989 -0.1795208 -0.30200347 0.20972046 -0.54136616
-0.33783114 0.050600413 0.16125886 0.08704541 -0.27992648 -0.0075631123 -0.052569594 -0.14823318
-0.049940962 0.3160426 0.58599716 0.037435327 -0.3382916 0.43191046 0.21241184 0.36967576
0.23444235 0.11164403 0.25495124 0.20384529 0.094912566 -0.09083634 -0.20969361 -0.20765558
-0.312217 0.18986838 -0.21973312 0.23941883 -0.16143362 0.12528473 0.18639003 0.013240247
-0.13697663 0.4870567 -0.007989488 0.20916103 -0.28212944 0.103709005 0.29840583 -0.11483911
-0.49874815 -0.7426853 0.18797123 -0.38802192 0.12132873 0.43136927 -0.20690559 -0.30355364
-0.35996348 -0.094240196 -0.23713045 0.2869692 0.10329573 0.028851945 -0.051897746 0.24286056

prepack_folding._jit_pass_packed_weight_2 f4 [64, 64]
00000000: 06bb 1f3d 2a43 003d ddcc 2a3e 62f7 b1be
00000010: c96e 433e 683e 7d3d 2ef3 a3bd 4a87 79be
00000020: 3a1b 5b3e 8b3b d5bd 22c0 8d3d 1fc1 c3bd
00000030: dda3 64be a693 b8be 518e a1bd 08a5 79bc
00000040: 782b 1b3c 7f89 60be b9ed 303e 80ea a4be
00000050: 353b 78be aff6 f13d 7f3f dfbd ec25 90bd
00000060: c066 4f3e 928f d5be 2650 433d 9883 d23e
00000070: 454e f63d cfda d1bc a74d d93e 4f0b 5cbe
00000080: cf5f ad3d 0753 9f3e 1a18 a1be ac78 ce3e
00000090: edb0 21bd 2be6 60bd 9935 993d 80cb 2dbd
000000a0: 0fad 063e 24f7 59bd d1e0 933e 859c bb3e
000000b0: f446 b9bd c8d2 7e3e 15e6 9e3d 2143 f2be
000000c0: a3f4 373d 9f69 0bbe 0afb afbd c95b 7f3e
000000d0: 23ad 223e c93b d8bd 752b 793d a606 8dbe
000000e0: 1f22 88bd f2f4 bebe 3e11 5cbe 4392 fe3e
000000f0: b585 c43c be8c 29be 42c1 b93c 0d6a dbbc
00000100: e371 22be aded 0a3e c2d6 053e e5cf 993d
00000110: 862f afbd 7b38 f2be d61e ce3e 68e4 e0be
00000120: 4209 85be 42d0 aebe 1698 b73e c677 57bd
00000130: faa3 6f3e 9857 36be 33ed ac3e c643 823e
00000140: 52f6 05bf b2a8 b93e 6b1a 5e3e 78e6 1dbe
00000150: 3dea 4fbe 5bcd ac3e 855b b43d 8a99 a9be
00000160: 4b53 9d3d a130 603e 87ef 0e3e 2381 363d
00000170: 1f0f 2cbe 0344 ce3d c102 b0be d70e dc3e
00000180: 1ce6 023e a479 edbc 9391 243e 0748 7ebe
00000190: b508 8abd 98dd b0bd e6b6 103e 1144 1fbe
000001a0: fcc2 143e becc 953e 9016 13bc c47d ec3c
000001b0: 432f 5c3d a149 163e a394 3abe 25cf 86bc
000001c0: 8a14 febd dcfc d5be 0c1a 24bf 9f98 adbe
000001d0: a781 92bd fb16 dcbe 690f 533e 10f2 2cbf
000001e0: 5f89 863e 78af 02bf 0539 0cbe 64b7 aebe
000001f0: 7ca9 c53e d7d7 11be 3956 1f3e 2736 bd3d
00000200: 00c7 a23e 4d5d 48bd 314d 303d d8fb 09be
00000210: cca9 b33e ea92 263f c52e f8be 44d3 19bd
00000220: e33f 14be 1848 063e 1108 e2bd 1280 403e
00000230: 1c2a 1cbe e1e0 93be f4d7 763e 856c 95bc
00000240: 8f7f 8f3e 0640 b2be fedf 393e fbb0 163c
00000250: 1da4 1fbe fb49 cc3d 8dd6 9bbe 46fe 383f
00000260: 51bd 533e 968a 56be 06d8 74be f14b 933d
00000270: c810 c53e ff1c 333d 383a 243d dc06 6d3e
00000280: db94 93bd a9cd 7dbd 7a26 dd3d 1266 913d
00000290: dc5a 41be 3aa7 753d 519d 23be d17c 0bbe
000002a0: 433b e33b 7448 0cbe a845 a1bd 098e e23d
000002b0: 937f 483b 75e3 173e 6b6d 16be 226a 4dbf
000002c0: a1a1 de3d 42cc 43be 27c7 83bd 78bc 083f
000002d0: 949b b13e 6c22 c43d 0d60 debd 04e0 72be
000002e0: ea11 68be 4d64 c93e 8eeb 413e 0cf9 dd3e
000002f0: cf1e f7bd ecb3 a73e fc57 22bf 0842 59be
00000300: 09f4 7dbd f555 cbbd 60ca f4bd 855a 0fbe
00000310: 0be1 0d3e b459 38bd dc78 f5bc 439b c33e
00000320: 21a7 e1be 4c1e f5be b3e6 753e 6011 fc3d
00000330: 2a99 9ebd 03cc 953d 08b9 203f 2eaf 63bd
00000340: e1ca 173d 94f0 bf3d 946a b63e 46c8 f9bd
00000350: 5e5e dcbe eb0d e33d b06d c9be 3aad 613e
00000360: 58a8 02be 9c9a 04be d069 aebd 0cca 1c3d
00000370: 891c d33e 7c3e 49be 2f0e 89bd 4170 613e
00000380: da01 f1bc 049e 76be 270a 3dbe 73a2 67be
00000390: 9791 233c 0de6 2d3e d937 b53d 5aff 8d3d
000003a0: 185b 62bd 0162 ee3e dc61 dc3e abdf 733e
000003b0: 3a34 5cbc 5f10 91be 5ba5 0a3e a715 643e
000003c0: 3c4f adbd b0fd 323d 3a5f ca3e 0e7e b23d
000003d0: ff6b b1be b03d 893e 5b9d bfbe fbf7 113e
000003e0: b50e c8be 7d7d 013f 4c6e 46be 8d8d 4c3f
000003f0: 3bda d1bc 1955 d33d 6673 a5be d060 2dbe
0.03899672 0.031314053 0.16679712 -0.3475905 0.1908523 0.061827093 -0.08005367 -0.24368015
0.21397105 -0.104117475 0.06921412 -0.09558319 -0.22328134 -0.36050147 -0.07888473 -0.0152371
0.009470813 -0.2192745 0.17278184 -0.3221016 -0.24241336 0.11814629 -0.10900783 -0.07038483
0.2025404 -0.41711098 0.047683857 0.41116023 0.120266475 -0.025617031 0.42442057 -0.21488689
0.0846554 0.31118032 -0.314637 0.4032644 -0.03947537 -0.054907005 0.07480926 -0.0424304
0.13151954 -0.053214207 0.2888246 0.36642852 -0.09046736 0.24885094 0.077587284 -0.4731684
0.044911038 -0.1361451 -0.08592804 0.24937357 0.15886359 -0.10558278 0.06083246 -0.27544135
-0.06647133 -0.37296253 -0.21490952 0.49720964 0.023989538 -0.16557595 0.02267516 -0.026783967
-0.15863757 0.13567229 0.13070205 0.07510356 -0.08553986 -0.47308716 0.402579 -0.4392426
-0.25983626 -0.34143263 0.3585822 -0.05260446 0.23402396 -0.17806852 0.3377472 0.25442332
-0.5232898 0.36261517 0.21689765 -0.15419948 -0.20304199 0.33750424 0.088065185 -0.33124954
0.076819025 0.2189355 0.1395856 0.044556748 -0.16802643 0.10071566 -0.343771 0.42980072
0.12783092 -0.028988667 0.16071157 -0.24832164 -0.06739942 -0.08636016 0.1413227 -0.15553309
0.14527506 0.29257768 -0.008977547 0.028868563 0.05375601 0.14676525 -0.18220763 -0.016456196
-0.12406261 -0.4179448 -0.64102244 -0.33905503 -0.071536355 -0.42986283 0.20611347 -0.6755686
0.2627668 -0.51048994 -0.13693626 -0.3412429 0.3860587 -0.14242493 0.15560235 0.09238844
0.3179245 -0.048917104 0.043042365 -0.13474977 0.35090482 0.65067923 -0.48473182 -0.037554994
-0.14477496 0.13113439 -0.11036695 0.18798855 -0.15250438 -0.28882506 0.24105817 -0.018240223
0.28027007 -0.3481447 0.18151852 0.009197469 -0.15589948 0.09975048 -0.30437127 0.7226299
0.20677687 -0.20951304 -0.23910531 0.07192219 0.38489366 0.043728825 0.040094584 0.23147148
-0.07206126 -0.06196371 0.107983544 0.070995465 -0.18882316 0.059973933 -0.1597798 -0.13621832
0.006934555 -0.13699514 -0.07874614 0.11062247 0.0030593618 0.14832862 -0.14690177 -0.8024007
0.10870672 -0.19120887 -0.0643447 0.5341258 0.3468901 0.09576878 -0.10858164 -0.23718268
-0.22663084 0.39334336 0.18937513 0.4335407 -0.12066423 0.32754457 -0.63415504 -0.21216595
-0.06200031 -0.099285044 -0.119526625 -0.13999374 0.13855378 -0.045007423 -0.029964857 0.38204393
-0.44072822 -0.47874677 0.24013786 0.123080015 -0.077440575 0.07314303 0.62782335 -0.055586986
0.037058715 0.093720585 0.35628188 -0.12196402 -0.43040746 0.11086639 -0.39341497 0.22038737
-0.1275953 -0.12949604 -0.08516276 0.038278624 0.41232708 -0.19652742 -0.066921584 0.22015478
-0.029419828 -0.24083716 -0.18460904 -0.22620563 0.009983442 0.16982289 0.08848543 0.0693347
-0.055262655 0.46559146 0.4304341 0.23815791 -0.013440186 -0.28332803 0.1353964 0.22273885
-0.084623784 0.043698967 0.39525777 0.08715449 -0.34652707 0.26804876 -0.3742474 0.14254753
-0.3907372 0.50582105 -0.19378012 0.7990349 -0.025616756 0.103189655 -0.32314605 -0.16931462

prepack_folding._jit_pass_packed_weight_2 f4 [64]
00000000: 1915 dcbd d337 613e a703 2dbc 025c cabd
00000010: 2a43 9abe 478b ac3d 9b6d 013c 3d04 adbe
00000020: ee9d b53d 2082 113e b694 a03d b6ac 6fbc
00000030: bc67 bdbe eb57 86bd a54b 6bbe 9eb0 e5bd
00000040: bbf9 c83e aac0 d6be 4e47 403e 443d 9cbd
00000050: fde2 31bd 90fa 2f39 f1c2 8f3c b194 88bd
00000060: e55f c93d 3ba5 563d 71de 2a3e cb41 2abc
00000070: e602 4bbe 411c 83be a7d5 393e 245f 83bd
00000080: eae2 8dbe 8cda 823e 9ae3 46bd 5c89 5e3e
00000090: af00 16be 06e8 80be 4852 de3d 287a 943d
000000a0: 35be 93be eec0 6d3c 71e1 7abe 705f 803e
000000b0: d1f3 b2bd 778b 793e eed8 a4bd aa4b 183f
000000c0: 2b52 a33d 2295 e73d ead5 e9bc a812 3d3e
000000d0: 8a91 59bd 3326 633e ecc5 773e 172b 7b3d
000000e0: a231 b2bd 6212 65be e8cd 043f 76f2 96bd
000000f0: 221c 2ebc 7e3a d2bd ceae 023c 4888 883e
-0.107462116 0.21993951 -0.010559953 -0.0988083 -0.30129367 0.084250025 0.007899667 -0.33792296
0.08868013 0.14209795 0.07840864 -0.01462858 -0.36993206 -0.06559738 -0.22978075 -0.11215328
0.3925303 -0.41943866 0.187772 -0.07628873 -0.043429364 0.00016782642 0.01754901 -0.06668986
0.098327436 0.05240367 0.16686417 -0.010391663 -0.19825324 -0.25607494 0.18147908 -0.06414631
-0.27712184 0.25557363 -0.0485569 0.21732086 -0.14648698 -0.2517702 0.10855538 0.07249862
-0.28856054 0.01451133 -0.24500062 0.25072813 -0.087379105 0.24369608 -0.080491886 0.59490454
0.07974657 0.11307742 -0.028544385 0.18464148 -0.053117312 0.2218254 0.24196595 0.06132039
-0.08700873 -0.22370294 0.5187669 -0.073704645 -0.010626825 -0.10265063 0.007976247 0.26666474

prepack_folding._jit_pass_packed_weight_3 f4 [128, 64]
00000000: 5354 de3e 0742 33be 5e41 3fbd ff5d c93e
00000010: 84b5 eebd 83d4 c13d 5fe5 023d 9725 d73e
00000020: 9957 d33c c281 2a3e 6f78 ebbe a0f5 a73e
00000030: c216 5b3e b757 efbd 77b4 bbbd 1306 97be
00000040: 320d 9abe f1af 803e 8ab4 cfbd afa9 aabe
00000050: 6b55 503d 67de a5be d713 85bc 9aba e03d
00000060: 8602 34bb 38b0 503e ac3d a83e a333 c3be
00000070: 2707 f5be 116f 103e 95ee 9ebc 902c b73e
00000080: 1a79 e4bc 4da8 0a3e c95a 953e b7f7 0bbf
00000090: b4a9 84bc 7375 afbe 520a debc 354a b1be
000000a0: 8f03 4cbe 9fa2 073f 40db 2c3e 0aed a1be
000000b0: bec5 673e 25a1 d33e fa8e 453f 0194 4c3e
000000c0: 5744 e6bd 3f6e fa3d 4556 c73d 3bed 9bbe
000000d0: 9847 c93e 6d89 0d3e 513c 3ebe 3e2f 9cbe
000000e0: 1b33 25be b171 5b3e 15a2 c6bd b46e 053e
000000f0: 1caf eebd 2ad2 b1be 6f53 8ebe e297 27bb
00000100: 49a7 bdbe 4142 823d 10bb 313d ede5 073e
00000110: 3f1b b93e a3f2 643e dbde 9e3e a8c4 823d
00000120: 649e 413e 0a93 d6be 7151 54be 641b 81be
00000130: 7628 453f ca2f 38be 6e9b c1be 79f9 d83d
00000140: 0e9c af3e 61f4 5b3c b6da a7bd 4a9e 9e3e
00000150: 0d67 1dbe 4759 4d3e 2b1b 05bf ebf8 e13d
00000160: 5d58 223b 673a ba3e adbb ee3d 67b7 47be
00000170: f3d5 353f faef 0fbe 194b efbc fd9c 31bd
00000180: 4964 a73e a861 80bc 0a91 6e3d ab0c bdbe
00000190: 36da 1ebe 7c83 6cbe 8597 c2bd 3745 083e
000001a0: 7b42 1b3f c77c c13e f9a8 27be a1e8 bcbd
000001b0: c3df 4abe 223b 15be 6834 62be 154d 57bd
000001c0: 428d a33e f481 95bd 0c86 083f ddcc b53d
000001d0: 1a00 893d b0d5 a53e cf5e ccbe 5493 5c3e
000001e0: 9cbb 0cbf 87fb ccbd d4de fabe 4835 863e
000001f0: ecea 26bf ff61 42be 9e9d 21be 6158 c5be
00000200: 6a35 ca3e 05f7 15be 4db2 38bd e310 3d3e
00000210: 773f 91bd feab fc3d 31fc 083e ccda b83e
00000220: ebc0 dcbc b279 0b3d cbf2 95be 390a 1d3f
00000230: 23ef 983c 134e 26be c538 003d b850 62be
00000240: 4507 f0be 0ada 1c3f fa1b 6f3e b43a e1bd
00000250: cdc4 d73e 9a72 60be 7580 97bd 77fe 6f3e
00000260: cd2d 52be 944c 3cbe 012c 7d3e 30c6 5abe
00000270: 8aec 233e 8fa5 893e a254 4abe de13 293c
00000280: 4a7a 42bd 27d2 153e 6317 b13e da2d bebe
00000290: bbfc 593e d850 e0bd 4d29 71be e2c1 81be
000002a0: 0e17 13be a40b 903e 60ca cebd 3135 bcbc
000002b0: 4ccc 63be b02d 913e e35c 913f 2665 30be
000002c0: 77f5 15bd 1940 1c3d 1589 82be bd7c 09bf
000002d0: 4a49 033e 8af7 a6be 3856 94be f98f 12bd
000002e0: a2b5 11be 01ca 1dbc b468 ebbe 913e f43e
000002f0: 3a43 1d3e 07e4 613b 73f8 0ebd 37c7 50be
00000300: baf4 f13e bc76 1bbf ff1b 3ebf 1ed0 22bf
00000310: 4994 8dbd 3117 be3e 87c1 123e dfb3 c0be
00000320: cd19 223f a142 dcbe 5d95 f93e 33eb b33e
00000330: 8624 c3bd 9d78 3c3e 667b 9c3e 880b e33d
00000340: f72d 97bd 8a38 a43e 8b52 1eba c4ae c03e
00000350: f276 863e e5b0 e7be ace4 a03e 456c 033f
00000360: 255c b6be 2056 bdbd 7ed7 febe dc22 94bc
00000370: 62d8 a8be 5f7d 993e 5eb5 d53d 08d9 6d3d
00000380: 7cf5 bd3e fb4f ef3e ac30 36be 4fee d8bd
00000390: 69a8 d93e 9874 7e3d abe3 2a3e d0f5 41ba
000003a0: 4d2a 013f 8d22 7f3e ce43 623e e6b0 3e3c
000003b0: d5d5 3ebd f0ef e13d 2acd 3abe 4569 ce3e
000003c0: 4977 c3be 14c3 dfbd 2d36 be3b a8d3 6f3d
000003d0: 80a0 0ebe 802a 70be 69f0 c7bd d3b7 f0be
000003e0: bcdb 0b3e 9100 4a3e ed94 9fbe 68dd a73b
000003f0: ebc7 13bf 6aa6 77be ee6a 8f3c 6e26 08be
0.4342371 -0.17505656 -0.0466932 0.39329526 -0.11655715 0.094643615 0.031957027 0.42020866
0.025798606 0.16651061 -0.4599032 0.32804585 0.213954 -0.11686652 -0.0916528 -0.29496822
-0.30088192 0.25134233 -0.10141857 -0.33332583 0.05086271 -0.32396242 -0.016244812 0.109730914
-0.0027467324 0.20379722 0.32859552 -0.38125333 -0.4785702 0.14104868 -0.019400874 0.35776186
-0.027889777 0.13540764 0.29170826 -0.5467486 -0.016194202 -0.34269294 -0.02710453 -0.34626928
-0.19923232 0.52982515 0.16880512 -0.3162616 0.22634026 0.4133388 0.7717129 0.19978334
-0.112435035 0.12228059 0.097332515 -0.3045443 0.39312434 0.13821955 -0.18577696 -0.30504793
-0.16132776 0.21430089 -0.096988834 0.13030511 -0.11654493 -0.34730655 -0.2779803 -0.0025572707
-0.3704169 0.06360293 0.043391287 0.13271303 0.361536 0.22358184 0.310294 0.063851655
0.18908077 -0.41909057 -0.20734192 -0.2521621 0.77014863 -0.1798698 -0.37813896 0.10594458
0.34298748 0.013424964 -0.08196013 0.3098014 -0.15371342 0.20053588 -0.5199458 0.110338055
0.0024771907 0.36372682 0.1165689 -0.19503556 0.71029586 -0.14056388 -0.029210614 -0.043362606
0.326937 -0.015671566 0.05824379 -0.36923727 -0.15512928 -0.23097032 -0.09501556 0.13307653
0.60648316 0.3779051 -0.16373052 -0.09224058 -0.19811921 -0.14573339 -0.22090304 -0.052563746
0.3194371 -0.07300177 0.5332954 0.08876965 0.066894725 0.32389593 -0.39916083 0.21540576
-0.5497377 -0.100089125 -0.4899813 0.26212525 -0.6520221 -0.18982695 -0.15782782 -0.3854399
0.39493877 -0.14645012 -0.045091916 0.18463473 -0.07092183 0.123374924 0.13377453 0.3610443
-0.02694746 0.034051605 -0.292868 0.61343724 0.018668717 -0.1624072 0.03130414 -0.22101104
-0.46880546 0.612702 0.23350516 -0.10997525 0.42142335 -0.21918717 -0.07397548 0.23436914
-0.20525284 -0.18388587 0.24723817 -0.21364665 0.16008201 0.26884124 -0.19758847 0.010319678
-0.047479905 0.14630948 0.34588155 -0.37144357 0.21287815 -0.1095292 -0.23550911 -0.25343233
-0.14364263 0.2813388 -0.10097194 -0.022974582 -0.22245902 0.2835517 1.1356472 -0.17226085
-0.036611047 0.038147066 -0.2549521 -0.5370596 0.12820926 -0.32610732 -0.2897203 -0.035781834
-0.14229444 -0.009630681 -0.4597832 0.47703984 0.15357676 0.003446819 -0.03490491 -0.20388494
0.47257024 -0.6072805 -0.7426147 -0.6359881 -0.06913049 0.3712707 0.14331637 -0.3763723
0.6332062 -0.43019584 0.48746768 0.3514038 -0.09528451 0.18405385 0.30562896 0.11086184
-0.07381814 0.32074386 -0.00060395215 0.37633336 0.26262623 -0.45252147 0.31424463 0.5133708
-0.35617176 -0.09244943 -0.49773782 -0.018083028 -0.32977587 0.29978463 0.10434984 0.058068305
0.37101352 0.46740708 -0.17792004 -0.10592329 0.425113 0.06212291 0.16688411 -0.00073989946
0.5045517 0.24915524 0.22096178 0.011638856 -0.046590645 0.110320926 -0.18242326 0.4031469
-0.38176945 -0.1092588 0.005804798 0.05855146 -0.13928413 -0.23453712 -0.097626515 -0.47015247
0.13658041 0.19726779 -0.3116831 0.005122829 -0.57726926 -0.24184576 0.017507043 -0.1329591

prepack_folding._jit_pass_packed_weight_3 f4 [128]
00000000: aeba d0be 9e85 11be 0979 4bbe 9e69 53be
00000010: fa88 b8bd a8c4 ebbe 0664 06be 6e48 f1be
00000020: 5bbc d4be 8a67 f5be a689 dcbe be9c b1bd
00000030: 3f1a a3be a70d a9be 0a31 babe af50 a3be
00000040: 26f7 94be 64ba abbe d0e1 9dbe 4363 f2be
00000050: d936 6bbe ba02 afbe ee96 29bf 3619 4abe
00000060: d1b3 d6be 76f7 37be ee76 8ebe 48f6 3dbe
00000070: 505d 08bf 7a4e 66be 0b7a babe 0593 04bf
00000080: 02a3 8dbe 5bea a3be e91a b4be f6ae b8be
00000090: c298 fabd 63d3 10bf 5e97 abbe 25dd 8abe
000000a0: 8775 69be 4c1f dfbe b19d 91be f390 b3be
000000b0: b2d0 43be 71b0 f0be b735 c2be 25cb 0cbf
000000c0: 19b2 dbbe 26f5 cdbe 73ad fabe 1098 8fbe
000000d0: bca0 cabe e75f 75be ff80 c2be 0f97 a4be
000000e0: e45f 6fbe c1dc 01bf e181 e4be f02e 64be
000000f0: 0847 dcbe 4953 ebbe 03b2 8dbe f833 90be
00000100: 414d 95be 30b1 bdbe a560 2bbe f68d 25be
00000110: 1c01 84be a634 21be 7614 cbbe 4a98 81be
00000120: 5d9a b0be 30e5 d9be f844 debe decb 6bbe
00000130: 94b3 fdbe cd06 03bf 7662 98be 8c34 4cbf
00000140: aaba e8be 7fb6 a4be 065c d2be 89c2 d0be
00000150: 33f8 ddbe 7d60 33be 57fd c4be 1b8f 4abe
00000160: 1b10 dbbe 9f3e c7be 8af9 debe 1f0a b6be
00000170: 9b59 a7bd bf4c 9ebe 17b3 56be 1631 74be
00000180: c03c 63be f4c9 b4be 8fd6 82be a7d4 cebe
00000190: 57f3 5fbe dd6b bcbe 8fef 88be 355f 75be
000001a0: 1e85 c8bd 5997 bdbe 403a 96be fd1a 8ebe
000001b0: 09e5 6dbe 2be5 31bd 580d efbe 1b5e 5ebe
000001c0: bf0c 14be 5e75 aebd 564c 98be 150f 96be
000001d0: 8ce2 4dbe 653c e3be 876a 99be ec67 92be
000001e0: 0324 d1be 83a1 03bf f520 d0be 015d f4be
000001f0: ee2c 84be bce5 38be 706e 4fbe 339e c1be
-0.40767425 -0.14211127 -0.1987039 -0.20645759 -0.09010501 -0.46048474 -0.13124093 -0.47125572
-0.41549954 -0.47930557 -0.43073767 -0.08672474 -0.31855962 -0.33018228 -0.3636554 -0.31897494
-0.2909481 -0.33540642 -0.30836344 -0.47341356 -0.22970141 -0.34181768 -0.66245925 -0.1973618
-0.41934064 -0.17965493 -0.2782511 -0.1855098 -0.53267384 -0.22490874 -0.36421236 -0.51786834
-0.27663428 -0.32014737 -0.3517678 -0.36070985 -0.122361675 -0.5657255 -0.33513921 -0.27121845
-0.2279874 -0.43578565 -0.28440621 -0.35071525 -0.1912258 -0.47009614 -0.37931606 -0.54997474
-0.42909315 -0.40226096 -0.48960456 -0.28045702 -0.39575756 -0.23962365 -0.3798904 -0.321465
-0.23376423 -0.5072747 -0.4463034 -0.2228353 -0.43022943 -0.4596198 -0.27674875 -0.2816465
-0.29160503 -0.37049246 -0.16736086 -0.16167435 -0.25782096 -0.1574274 -0.39664048 -0.253115
-0.3449277 -0.4255767 -0.43411994 -0.23026988 -0.4955107 -0.5118225 -0.2976262 -0.7976768
-0.45454913 -0.32170483 -0.41085833 -0.4077342 -0.43353423 -0.17517276 -0.38474533 -0.19781153
-0.42785725 -0.38914964 -0.43549758 -0.35554597 -0.08171388 -0.30917928 -0.20966755 -0.2384685
-0.22191143 -0.35310328 -0.2555432 -0.40396616 -0.2187017 -0.36801043 -0.2674527 -0.239621
-0.09791015 -0.37029532 -0.29341316 -0.27754965 -0.23231901 -0.043431442 -0.46689868 -0.21715586
-0.14457987 -0.0851848 -0.2974574 -0.29308382 -0.20105952 -0.44382015 -0.29964086 -0.2859491
-0.40847787 -0.5141832 -0.40650144 -0.47727206 -0.2581553 -0.18056387 -0.20256972 -0.3781601

prepack_folding._jit_pass_packed_weight_4 f4 [64, 128]
00000000: ec38 893d 2f65 d6be ebf3 5c3e 6f10 833e
00000010: 4155 b3be 82ce c13e 14b3 26be 2aaf 8f3e
00000020: afd6 ce3e ab09 c53e d482 dbbb 0cd1 6fbe
00000030: aa93 4e3d 3a47 2fbf a1e7 0f3e 2fde 08be
00000040: 107f b1bd 7c36 5b3e ed99 ba3e 13ba 49be
00000050: 62ef 483e 6de7 e73e f1d7 903d 4875 07bf
00000060: 5582 e5bd 75cb 343e 09bd 54be 6907 d13c
00000070: 7b1d c03d 256b b73e 9073 ca3d 353d 673e
00000080: c80d 98be 04d9 a43d d52d b4bc d4b8 06be
00000090: 03f4 0b3d f4e6 2abd b5d0 98bd ed1f 0a3f
000000a0: ce21 e6bc d2fb 0f3f 3f87 6d3d 554b 503d
000000b0: 4810 df3e 962d 203f e523 7d3e 814a 5b3e
000000c0: 8bb6 3f3c 9e93 dfbd fddc f53e a583 143e
000000d0: 7dff d9bc d1df c9be ddbe 93be aa1b 403f
000000e0: 8a2d 3d3d f864 d1bd 6363 cc3e c074 4d3f
000000f0: 6cfa 47bd 2fe0 97bd ac20 f4bb 6f7a 52be
00000100: c4a4 fdbc 4fda 3cbe be90 313e 97ad f6be
00000110: b556 803e d5c8 03be 067d febe f552 eb3e
00000120: 00d0 3d3e b234 6f3e f8a7 e2be 62fe d3be
00000130: 3b41 21bd cef4 503e e5d8 543e db17 ef3c
00000140: 9b89 39bd 999f 373e 2540 733e 75a4 713e
00000150: ab36 be3d b3c6 07be b55e 94bd 9d63 4f3e
00000160: 3fdc 1dbb fc9a 2fbd 74c7 e93e e91e 3c3e
00000170: 2a30 92be 8f02 a93d 7d23 3d3f f98f d4bd
00000180: c347 a4bd 16f2 5c3d d396 813e f3c9 99be
00000190: c1c8 7abd 92b9 89bd e6c7 67be 6750 12be
000001a0: 8b22 5fbb 8b47 10bd 546c 88be 9380 48be
000001b0: 7aa0 6abe 5e63 843e 4829 16be 082b 9fbd
000001c0: a781 203f 30a7 2abe a5c2 373e f2eb 893c
000001d0: c2d7 98bd 2c58 b93e 8472 8dbe d464 82bc
000001e0: ef7a ba3d 1049 b23e da0c 84be ce78 7d3d
000001f0: 5c3d 80bd eedc 01bf 55be ddbd af43 14bd
00000200: a1af d83d c2d2 77be cec1 393d ed0d 5ebf
00000210: 8a9f 703d 81fe a63b 07a1 183c 95e1 87bd
00000220: 43fb 223f fc69 8dbe ef48 b53d a444 85bc
00000230: e619 6cbe 625a 1e3e 6760 e9bd ccb9 0e3f
00000240: 9f6e 10bf f3c8 e2be cb35 04be e34b 9ebe
00000250: 8a46 fbbe df3c d23d 298b 1abe ec21 3e3d
00000260: 52d0 c03d 9868 acbd f6df 873e fd17 003f
00000270: 7d79 1bbf f888 a23e 49d6 1f3e 75c7 f1be
00000280: adec 873e 5c6d 3abf 1ead fabe b29e cdbe
00000290: 7495 80be c797 2a3d 4630 88be a7e6 dfbe
000002a0: 8596 88bc 8a9c 82be c72a 173e d232 a13c
000002b0: c334 ac3e fceb e0bd 3668 eabd 3306 1e3f
000002c0: 5ba7 e83d d3fa 763e ed20 d9bd 4e3e bfbe
000002d0: 4fe9 353e 11d7 183f 6a13 143c d84d b4be
000002e0: 3449 75be d73b 48bf 053f 3c3e 57aa 06be
000002f0: 4783 60be 1f76 b6bd 5c93 94bd fa70 c5be
00000300: ee12 593d 919d 0bbd 058d 073e 8c10 50be
00000310: 1baa efbc 53ea 5cbe ad4c a53e 027a 82be
00000320: 439e b43e 9ced f53e 6f77 91bd 4390 20be
00000330: 5f01 ddbe 879e ad3e 861e 11bf b116 b93d
00000340: ce4a febe f92c 75bd 7645 8dbe ee9f 60be
00000350: c54b 80be 132b 21bd a493 85be b040 af3e
00000360: c1ce babd ef74 493e b86e 8a3e 28df c43d
00000370: d70c 5ebe 0544 fabd 8107 113f 43ed fe3d
00000380: dad7 c83c e274 a63e dc7a 093d 1d13 80be
00000390: 8fe9 9c3e 1210 0dbe fdc5 53bd 1242 bcbd
000003a0: f6ce 193e 57ce 4dbd 35aa d73d af13 893e
000003b0: 5bfb 453e 794f aa3e 015c ee3d ef1f 4abe
000003c0: 46e3 a6be 770d 873e 42d8 e9bd c682 2fbe
000003d0: 7ad0 acbd 95b1 97be 40f4 febe 66fa 193d
000003e0: e2b3 f7bd 0818 003f c4c7 393c 91a1 113d
000003f0: ed73 eb3e c718 e13d 1939 323e 7d32 4d3e
0.0670031 -0.41874072 0.21577422 0.25598475 -0.3502598 0.37852865 -0.1627925 0.28063327
0.40398166 0.3848394 -0.0066989455 -0.23419589 0.050433792 -0.6846806 0.14053203 -0.13366006
-0.086668134 0.21407503 0.3644556 -0.19699888 0.19622567 0.4529375 0.070724376 -0.5291333
-0.112064995 0.17655738 -0.20775236 0.025516229 0.09380623 0.35823932 0.09885323 0.22581942
-0.29698014 0.08049205 -0.02199451 -0.13156444 0.034168255 -0.04172416 -0.07461683 0.53954965
-0.028092291 0.5624362 0.05799031 0.050853092 0.4356711 0.6256956 0.24720724 0.2141514
0.0117012365 -0.109168276 0.48020163 0.14503343 -0.026611084 -0.3942857 -0.28856555 0.7504221
0.046186008 -0.102243364 0.39919576 0.8025627 -0.048822805 -0.074158065 -0.007450184 -0.20554517
-0.030962355 -0.18442653 0.17340371 -0.48179314 0.25066152 -0.1286958 -0.4970476 0.4596173
0.18536377 0.23359945 -0.44268775 -0.41405016 -0.03936885 0.20405886 0.20785864 0.02918618
-0.045297246 0.17931975 0.23754938 0.23597892 0.09287771 -0.13259391 -0.072446264 0.20252843
-0.0024087576 -0.042872414 0.45659983 0.18371166 -0.2855237 0.08252441 0.73882276 -0.10379023
-0.080215 0.05394181 0.25310382 -0.30036888 -0.06122661 -0.06724848 -0.22634849 -0.14288484
-0.0034047689 -0.03522448 -0.26645148 -0.19580297 -0.2291278 0.2585706 -0.14664185 -0.077718794
0.62697834 -0.1666534 0.17945345 0.01683614 -0.074630275 0.36200082 -0.2762643 -0.01591722
0.09105479 0.34821367 -0.25791055 0.061882786 -0.06261703 -0.50727737 -0.108273186 -0.03619736
0.105803736 -0.24201491 0.045350842 -0.8674 0.0587459 0.005096257 0.009315736 -0.06634823
0.63664645 -0.27619922 0.088518016 -0.016268082 -0.23056754 0.15464166 -0.113953404 0.55752254
-0.56418794 -0.44293937 -0.12911145 -0.30917272 -0.49077255 0.102655165 -0.15092148 0.04641907
0.09414734 -0.08418387 0.26538056 0.50036603 -0.6073225 0.31745124 0.15609087 -0.47222486
0.26547757 -0.7282312 -0.48960203 -0.40160137 -0.25114024 0.041648652 -0.2659933 -0.4373066
-0.016673336 -0.25510055 0.14762412 0.019677553 0.33634004 -0.109825104 -0.11445658 0.6172821
0.113600455 0.2411912 -0.10601983 -0.37352222 0.17764781 0.59703165 0.009037832 -0.3521564
-0.23953706 -0.7821631 0.18383415 -0.13150917 -0.21925078 -0.089092486 -0.07254669 -0.38562757
0.05299657 -0.034085814 0.13237388 -0.20318812 -0.029255917 -0.21573763 0.3228506 -0.2548371
0.35276994 0.48032844 -0.07102858 -0.15680031 -0.4316511 0.3391001 -0.566872 0.09037531
-0.49666446 -0.059857342 -0.27592057 -0.21936008 -0.25057808 -0.03934772 -0.26089203 0.3422904
-0.091214664 0.19673513 0.27037597 0.09612876 -0.21684586 -0.12220005 0.56652075 0.12447598
0.024516989 0.3251105 0.033564433 -0.25014582 0.3064694 -0.13775662 -0.05170249 -0.091922894
0.15020356 -0.05024561 0.10530511 0.2677283 0.19334166 0.33263758 0.11638642 -0.19738744
-0.3259527 0.2637746 -0.11418201 -0.1713973 -0.08438201 -0.29627672 -0.49795723 0.037592314
-0.12094857 0.5003667 0.011339132 0.035554472 0.45986882 0.10991054 0.17404594 0.20038791

prepack_folding._jit_pass_packed_weight_4 f4 [64]
00000000: 96d9 88bd dc1c 833e 9b60 a73d ce65 30be
00000010: 5fbf bebe 92c2 403d 91a0 96bd 2122 5dbe
00000020: 18ed 68be bf5b 473e 0461 42be 4aa2 3ebd
00000030: f36d 3c3d 8e76 8ebe cdd0 4dbd 6638 b5bc
00000040: 12a9 db3e 6f21 2dbf 8c8b ad3e 0b83 043e
00000050: 14ae 3a3d 38e2 f6bd c1e3 f3bd 722b 903e
00000060: 8b76 b7bc 373d b53d 41bb 5f3e 2b64 2e3d
00000070: 66ea 55be cb6c cebe 5851 d53d f3b8 44bd
00000080: 15dd 77be 6f6d 47be 1f99 10be 7fb6 9e3e
00000090: 8290 a5be 1a93 b9be d0b5 88bd 13fc d73d
000000a0: fbe6 69be 2e00 10bd 7172 dabe 6112 303e
000000b0: 23ab 23be b893 8e3e 0bd6 0bbe 25da 363f
000000c0: 90b7 423e 9e73 253e e092 843d fdfe 553d
000000d0: 8446 1f3d 8d57 ba3d 2a69 373d 8d1e 1f3e
000000e0: 6425 603d e4e9 13be 46cb a03e 8ec6 be3b
000000f0: 9554 05be b226 f53c 82ee a2bd e84a 893d
-0.06682126 0.25607955 0.08172723 -0.17226335 -0.3725538 0.047060557 -0.07354844 -0.2159505
-0.22746694 0.19468592 -0.18982321 -0.04654149 0.046003293 -0.27824825 -0.050247956 -0.02212162
0.42902428 -0.6762914 0.33895528 0.12940614 0.04557617 -0.120548666 -0.11908675 0.28158146
-0.022395393 0.088495664 0.21848775 0.042575996 -0.20890197 -0.40317377 0.10415906 -0.048027944
-0.2420543 -0.1947534 -0.14120911 0.30998608 -0.32336813 -0.36245042 -0.06675303 0.10546126
-0.22842018 -0.03515642 -0.42665437 0.17194511 -0.15983252 0.27847075 -0.1365587 0.7142661
0.19015336 0.16157386 0.06473327 0.05224513 0.03888561 0.0909873 0.044778027 0.15538998
0.05472316 -0.14444691 0.31405085 0.0058220094 -0.13020547 0.029925678 -0.07955648 0.0670374

prepack_folding._jit_pass_packed_weight_5 f4 [192, 64]
00000000: efaf 4b3e a823 133d 0c59 77bd 0d59 40be
00000010: 1eaa 1b3f 1d86 9cbe e431 26bd c802 503c
00000020: d61f e23d 1561 89be 742c 56be b0e9 973d
00000030: 0eb0 11be 4bda 833b 7fdf 3e3d 9d16 d7bd
00000040: 0c04 e13d bab9 fc3d ea1b 7ebe c554 babe
00000050: d572 87be 9055 1abe 89de b33e 1255 e43e
00000060: ca16 0f3d be7a 77bc b433 c33d cabf 4d3e
00000070: 8246 6bbb 865c a9be a3b4 f23e ede3 2cbe
00000080: 21ff 3bbd 0870 b7be d07a 56be 6980 7c3e
00000090: f9c2 9bbd d3b8 2a3e 9acf 3bbf c10a 2b3d
000000a0: 5058 f53e 2861 cdbe 91e0 023e 5d30 813c
000000b0: a976 10bf ac0d 173e 6232 1d3e 8044 afbc
000000c0: abd2 c43e 610c 9bbe 4b0b 0a3f 966f 3dbe
000000d0: fa1f 6bbe 5cbb 4f3e bd9c 093e 91b5 b3be
000000e0: 41e8 983d aed9 bebe 5a00 9ebd e550 2fbf
000000f0: a891 133e f4e0 893e 00b1 f9bd 64c5 b73e
00000100: b010 26bf b102 1f3f f489 b8be 6e06 ac3e
00000110: 3e27 193e c8d7 063f 121c 1b3b b009 b1be
00000120: 6344 2fbe a694 9b3e 66c9 833e a9c1 31be
00000130: 5417 41be b021 133f 3a05 b53d 55ad 91be
00000140: 18bf 703e 182b 9abd d466 1f3f 1749 f43d
00000150: 071a 7cbe 82aa 28be 2d57 913d aa0a 11be
00000160: dab7 d23e 599f 123f 70f8 653e b110 d1be
00000170: 0f5c 4abe 79e9 9fbc df91 263e 317e abbe
00000180: bac8 58be 59e0 a33d 5e36 03bd 8898 0ebe
00000190: 1bd4 323e 4c60 4b3d 08ea 0a3e 7954 ee3d
000001a0: 9928 123d cd2d 9cbd f4d7 733e 8eb9 353f
000001b0: 6b57 fabe 7526 bfbe d840 a03e a721 87be
000001c0: dc8a 01bc 981c 823e 4ced 83bd 316a 4ebd
000001d0: fa91 58be 0aaa 2f3d fa00 ffbe 565e d0bd
000001e0: 8da3 d8be 5144 4ebe 646b c53e 0a94 e6be
000001f0: 5904 9d3e 6c53 ecbe a42f 88bd df0c cd3e
00000200: 621c dabe 4a3f 143f c425 47be 3e6c 7b3e
00000210: b87f 66be 08a7 bd3e 6bc5 aabc 79e0 9bbe
00000220: 0a32 84be c9d7 773e 5295 933d e06a f63d
00000230: bf72 a4be cf8c 913e 40ca bd3e 981b 8cbe
00000240: 0e8b cf3e 1ef5 2dbd bbe6 3b3f c269 20be
00000250: 0a0d 26be a5af 02be b997 fc3e 6c65 1a3d
00000260: 78ba 833e dada d43e 3d29 0f3e ca22 aabe
00000270: 1ada cabd d564 6ebc 81c4 8cbc b705 7ebe
00000280: 9819 fcbd 5fc9 f53d 1447 18be 19f2 973d
00000290: 2be0 70be 63d2 3bbe f597 d83e 1c33 503e
000002a0: 2c3d 15be 86c6 c73e cabb a33d 5ad3 4d3f
000002b0: e275 8abe 0bc1 a9be 06eb 8c3e c03c 33bd
000002c0: 50ba 31bd f5c5 51bd bd9d 62bd 914e 03bd
000002d0: 16cd 9abd 10c4 f7bc d557 27be 5c8f 4c3e
000002e0: 1695 cbbe a0ee 13be d9bc 433e 3697 babe
000002f0: 4d6d 5dbd e88e d6bc 1f57 56bd 7d9c c03e
00000300: 6b44 0e3e bdd0 89be d6c7 533e 8283 b23e
00000310: adaa 25bd f995 47be aeec 6d3e 2a1f 383e
00000320: 220b 8abd ba8f bebb dc7c 273f 3bcd 86be
00000330: 9503 4bbe e080 a43e 1769 203e 13a6 c2be
00000340: ba5e 573e 95bd 7fbe 3519 e63e c61b 0f3d
00000350: f285 cb3d 24af 67be 82e6 69be 295b 5fbe
00000360: 81df 353e 9150 62be b494 8c3c feb1 09bd
00000370: 6960 6abe 54f5 c2be b417 293d 3edb 51be
00000380: 9464 bb3c 40ef bdbd 03d4 d33d e0bb 8abe
00000390: 510c aabc 7863 26be 4669 0f3f a3ce d13e
000003a0: ce7b a03e 8a12 a8be 1832 733e 5b4c 833e
000003b0: e241 5d3b 7be8 c53d ab73 6d3e 2bf2 9f3e
000003c0: 7805 e23e 07ad c93e 16b9 39bd 8a4f 17be
000003d0: 745d 1e3e e6b7 3dbf 51ea 903e f0c7 cbbd
000003e0: b496 173e 1b71 3ebd 3836 d1be 33d8 3c3e
000003f0: f5a4 66be d027 873e 70d0 f83d 7788 f4be
0.19891332 0.035922676 -0.060387656 -0.1878397 0.60806453 -0.3057107 -0.040574923 0.012695976
0.110412285 -0.2683188 -0.20915395 0.07417619 -0.14227316 0.0040238253 0.04659986 -0.1050236
0.109871 0.12340112 -0.24815336 -0.363928 -0.26454797 -0.15071702 0.35130718 0.44596153
0.034933843 -0.015104948 0.09531346 0.20092693 -0.003590018 -0.33078402 0.4740344 -0.16883822
-0.045897607 -0.3582766 -0.20945287 0.2465836 -0.076055475 0.16672067 -0.7336365 0.041758303
0.4791894 -0.40113187 0.12780978 0.015770132 -0.5643106 0.14751309 0.15351251 -0.021394968
0.38441977 -0.30282882 0.5392348 -0.18499598 -0.22961417 0.20286316 0.13438697 -0.35099462
0.07466174 -0.3727545 -0.07714911 -0.6848281 0.14411032 0.26929438 -0.12191963 0.35892785
-0.64869213 0.6211348 -0.3604275 0.33598655 0.14956376 0.52673006 0.0023667854 -0.34577703
-0.17115931 0.30386847 0.25739592 -0.17359032 -0.18856555 0.5747328 0.088388875 -0.28452554
0.23510396 -0.07527751 0.6226628 0.11928003 -0.24619304 -0.16471294 0.070967056 -0.14164224
0.41155893 0.57274395 0.22458053 -0.40833047 -0.1976168 -0.019520508 0.16266583 -0.33494714
-0.21170321 0.08001775 -0.03203427 -0.13925374 0.17463724 0.049652383 0.13565838 0.11637206
0.03568325 -0.07625923 0.23812848 0.7098626 -0.4889482 -0.37334028 0.31299472 -0.26392862
-0.007906642 0.2541244 -0.06441745 -0.05039424 -0.21149436 0.04288677 -0.49805433 -0.10174243
-0.4231228 -0.20143248 0.38558495 -0.4503482 0.3066738 -0.46157396 -0.06649712 0.40048882
-0.4259978 0.5790907 -0.19448 0.2455301 -0.22509658 0.37041497 -0.02084609 -0.30444697
-0.25819427 0.24203409 0.07206215 0.120321035 -0.32118794 0.2842774 0.37068367 -0.27364802
0.40535778 -0.04247009 0.7339894 -0.15665343 -0.16215912 -0.12762316 0.49334505 0.03769438
0.25728202 0.4157322 0.13980575 -0.33229667 -0.09904881 -0.014550407 -0.017183544 -0.24806868
-0.12309569 0.12001299 -0.14870864 0.07419223 -0.23523013 -0.18341975 0.42303434 0.20331997
-0.14574116 0.3901865 0.07994802 0.8040062 -0.27043062 -0.33155093 0.2752306 -0.043759108
-0.043390572 -0.051214177 -0.055326212 -0.03205735 -0.07558648 -0.030244857 -0.16342099 0.19976562
-0.3976218 -0.14446497 0.19115008 -0.3644349 -0.054059315 -0.02619119 -0.05232918 0.3761939
0.13893287 -0.26917067 0.206817 0.34865957 -0.040445972 -0.19490804 0.23234817 0.17980638
-0.06740405 -0.0058154734 0.65424895 -0.26328453 -0.19825585 0.32129574 0.15665089 -0.3801733
0.21032229 -0.24974664 0.44941106 0.034938596 0.099376574 -0.22625405 -0.22841838 -0.21812119
0.17761041 -0.22101046 0.01716075 -0.033617012 -0.2288834 -0.38077796 0.04128237 -0.2049379
0.022875108 -0.09274149 0.103431724 -0.27096462 -0.020757826 -0.16248882 0.5602001 0.40977964
0.31344455 -0.32826644 0.23749578 0.25644192 0.0033761193 0.09663483 0.23188655 0.31239447
0.44144797 0.39389822 -0.045342527 -0.14776435 0.15465337 -0.7410873 0.2830377 -0.099502444
0.14803582 -0.046494585 -0.40861678 0.18441848 -0.22523864 0.26397562 0.12149131 -0.47760364
